…
 is a noun.\\n\\nThe word niewinosc is a noun.\\n\\nThe word niewinosc is a noun.\\n\\nThe word niewinosc is a noun.\\n\\nThe word']\n","\n"]},{"cell_type":"code","execution_count":null,"id":"1ZIOvdBN2BJn","metadata":{"id":"1ZIOvdBN2BJn","colab":{"base_uri":"https://localhost:8080/","height":1000},"executionInfo":{"status":"ok","timestamp":1721291450881,"user_tz":-120,"elapsed":22,"user":{"displayName":"Rankeed Info","userId":"00800550559634567127"}},"outputId":"ef919c63-3909-4138-c54e-3c5990d1e090"},"outputs":[{"output_type":"stream","name":"stdout","text":["Transformer(\n","  (tok_embeddings): Embedding(32000, 4096)\n","  (norm): RMSNorm()\n","  (output): Linear(in_features=4096, out_features=32000, bias=False)\n","  (layers): ModuleDict(\n","    (0): TransformerBlock(\n","      (attention): Attention(\n","        (wq): Linear(in_features=4096, out_features=4096, bias=False)\n","        (wk): Linear(in_features=4096, out_features=1024, bias=False)\n","        (wv): Linear(in_features=4096, out_features=1024, bias=False)\n","        (wo): Linear(in_features=4096, out_features=4096, bias=False)\n","      )\n","      (attention_norm): RMSNorm()\n","      (ffn_norm): RMSNorm()\n","      (feed_forward): FeedForward(\n","        (w1): Linear(in_features=4096, out_features=14336, bias=False)\n","        (w2): Linear(in_features=14336, out_features=4096, bias=False)\n","        (w3): Linear(in_features=4096, out_features=14336, bias=False)\n","      )\n","    )\n","    (1): TransformerBlock(\n","      (attention): Attention(\n","        (wq): Linear(in_features=4096, out_features=4096, bias=False)\n","        (wk): Linear(in_features=4096, out_features=1024, bias=False)\n","        (wv): Linear(in_features=4096, out_features=1024, bias=False)\n","        (wo): Linear(in_features=4096, out_features=4096, bias=False)\n","      )\n","      (attention_norm): RMSNorm()\n","      (ffn_norm): RMSNorm()\n","      (feed_forward): FeedForward(\n","        (w1): Linear(in_features=4096, out_features=14336, bias=False)\n","        (w2): Linear(in_features=14336, out_features=4096, bias=False)\n","        (w3): Linear(in_features=4096, out_features=14336, bias=False)\n","      )\n","    )\n","    (2): TransformerBlock(\n","      (attention): Attention(\n","        (wq): Linear(in_features=4096, out_features=4096, bias=False)\n","        (wk): Linear(in_features=4096, out_features=1024, bias=False)\n","        (wv): Linear(in_features=4096, out_features=1024, bias=False)\n","        (wo): Linear(in_features=4096, out_features=4096, bias=False)\n","      )\n","      (attention_norm): RMSNorm()\n","      (ffn_norm): RMSNorm()\n","      (feed_forward): FeedForward(\n","        (w1): Linear(in_features=4096, out_features=14336, bias=False)\n","        (w2): Linear(in_features=14336, out_features=4096, bias=False)\n","        (w3): Linear(in_features=4096, out_features=14336, bias=False)\n","      )\n","    )\n","    (3): TransformerBlock(\n","      (attention): Attention(\n","        (wq): Linear(in_features=4096, out_features=4096, bias=False)\n","        (wk): Linear(in_features=4096, out_features=1024, bias=False)\n","        (wv): Linear(in_features=4096, out_features=1024, bias=False)\n","        (wo): Linear(in_features=4096, out_features=4096, bias=False)\n","      )\n","      (attention_norm): RMSNorm()\n","      (ffn_norm): RMSNorm()\n","      (feed_forward): FeedForward(\n","        (w1): Linear(in_features=4096, out_features=14336, bias=False)\n","        (w2): Linear(in_features=14336, out_features=4096, bias=False)\n","        (w3): Linear(in_features=4096, out_features=14336, bias=False)\n","      )\n","    )\n","    (4): TransformerBlock(\n","      (attention): Attention(\n","        (wq): Linear(in_features=4096, out_features=4096, bias=False)\n","        (wk): Linear(in_features=4096, out_features=1024, bias=False)\n","        (wv): Linear(in_features=4096, out_features=1024, bias=False)\n","        (wo): Linear(in_features=4096, out_features=4096, bias=False)\n","      )\n","      (attention_norm): RMSNorm()\n","      (ffn_norm): RMSNorm()\n","      (feed_forward): FeedForward(\n","        (w1): Linear(in_features=4096, out_features=14336, bias=False)\n","        (w2): Linear(in_features=14336, out_features=4096, bias=False)\n","        (w3): Linear(in_features=4096, out_features=14336, bias=False)\n","      )\n","    )\n","    (5): TransformerBlock(\n","      (attention): Attention(\n","        (wq): Linear(in_features=4096, out_features=4096, bias=False)\n","        (wk): Linear(in_features=4096, out_features=1024, bias=False)\n","        (wv): Linear(in_features=4096, out_features=1024, bias=False)\n","        (wo): Linear(in_features=4096, out_features=4096, bias=False)\n","      )\n","      (attention_norm): RMSNorm()\n","      (ffn_norm): RMSNorm()\n","      (feed_forward): FeedForward(\n","        (w1): Linear(in_features=4096, out_features=14336, bias=False)\n","        (w2): Linear(in_features=14336, out_features=4096, bias=False)\n","        (w3): Linear(in_features=4096, out_features=14336, bias=False)\n","      )\n","    )\n","    (6): TransformerBlock(\n","      (attention): Attention(\n","        (wq): Linear(in_features=4096, out_features=4096, bias=False)\n","        (wk): Linear(in_features=4096, out_features=1024, bias=False)\n","        (wv): Linear(in_features=4096, out_features=1024, bias=False)\n","        (wo): Linear(in_features=4096, out_features=4096, bias=False)\n","      )\n","      (attention_norm): RMSNorm()\n","      (ffn_norm): RMSNorm()\n","      (feed_forward): FeedForward(\n","        (w1): Linear(in_features=4096, out_features=14336, bias=False)\n","        (w2): Linear(in_features=14336, out_features=4096, bias=False)\n","        (w3): Linear(in_features=4096, out_features=14336, bias=False)\n","      )\n","    )\n","    (7): TransformerBlock(\n","      (attention): Attention(\n","        (wq): Linear(in_features=4096, out_features=4096, bias=False)\n","        (wk): Linear(in_features=4096, out_features=1024, bias=False)\n","        (wv): Linear(in_features=4096, out_features=1024, bias=False)\n","        (wo): Linear(in_features=4096, out_features=4096, bias=False)\n","      )\n","      (attention_norm): RMSNorm()\n","      (ffn_norm): RMSNorm()\n","      (feed_forward): FeedForward(\n","        (w1): Linear(in_features=4096, out_features=14336, bias=False)\n","        (w2): Linear(in_features=14336, out_features=4096, bias=False)\n","        (w3): Linear(in_features=4096, out_features=14336, bias=False)\n","      )\n","    )\n","    (8): TransformerBlock(\n","      (attention): Attention(\n","        (wq): Linear(in_features=4096, out_features=4096, bias=False)\n","        (wk): Linear(in_features=4096, out_features=1024, bias=False)\n","        (wv): Linear(in_features=4096, out_features=1024, bias=False)\n","        (wo): Linear(in_features=4096, out_features=4096, bias=False)\n","      )\n","      (attention_norm): RMSNorm()\n","      (ffn_norm): RMSNorm()\n","      (feed_forward): FeedForward(\n","        (w1): Linear(in_features=4096, out_features=14336, bias=False)\n","        (w2): Linear(in_features=14336, out_features=4096, bias=False)\n","        (w3): Linear(in_features=4096, out_features=14336, bias=False)\n","      )\n","    )\n","    (9): TransformerBlock(\n","      (attention): Attention(\n","        (wq): Linear(in_features=4096, out_features=4096, bias=False)\n","        (wk): Linear(in_features=4096, out_features=1024, bias=False)\n","        (wv): Linear(in_features=4096, out_features=1024, bias=False)\n","        (wo): Linear(in_features=4096, out_features=4096, bias=False)\n","      )\n","      (attention_norm): RMSNorm()\n","      (ffn_norm): RMSNorm()\n","      (feed_forward): FeedForward(\n","        (w1): Linear(in_features=4096, out_features=14336, bias=False)\n","        (w2): Linear(in_features=14336, out_features=4096, bias=False)\n","        (w3): Linear(in_features=4096, out_features=14336, bias=False)\n","      )\n","    )\n","    (10): TransformerBlock(\n","      (attention): Attention(\n","        (wq): Linear(in_features=4096, out_features=4096, bias=False)\n","        (wk): Linear(in_features=4096, out_features=1024, bias=False)\n","        (wv): Linear(in_features=4096, out_features=1024, bias=False)\n","        (wo): Linear(in_features=4096, out_features=4096, bias=False)\n","      )\n","      (attention_norm): RMSNorm()\n","      (ffn_norm): RMSNorm()\n","      (feed_forward): FeedForward(\n","        (w1): Linear(in_features=4096, out_features=14336, bias=False)\n","        (w2): Linear(in_features=14336, out_features=4096, bias=False)\n","        (w3): Linear(in_features=4096, out_features=14336, bias=False)\n","      )\n","    )\n","    (11): TransformerBlock(\n","      (attention): Attention(\n","        (wq): Linear(in_features=4096, out_features=4096, bias=False)\n","        (wk): Linear(in_features=4096, out_features=1024, bias=False)\n","        (wv): Linear(in_features=4096, out_features=1024, bias=False)\n","        (wo): Linear(in_features=4096, out_features=4096, bias=False)\n","      )\n","      (attention_norm): RMSNorm()\n","      (ffn_norm): RMSNorm()\n","      (feed_forward): FeedForward(\n","        (w1): Linear(in_features=4096, out_features=14336, bias=False)\n","        (w2): Linear(in_features=14336, out_features=4096, bias=False)\n","        (w3): Linear(in_features=4096, out_features=14336, bias=False)\n","      )\n","    )\n","    (12): TransformerBlock(\n","      (attention): Attention(\n","        (wq): Linear(in_features=4096, out_features=4096, bias=False)\n","        (wk): Linear(in_features=4096, out_features=1024, bias=False)\n","        (wv): Linear(in_features=4096, out_features=1024, bias=False)\n","        (wo): Linear(in_features=4096, out_features=4096, bias=False)\n","      )\n","      (attention_norm): RMSNorm()\n","      (ffn_norm): RMSNorm()\n","      (feed_forward): FeedForward(\n","        (w1): Linear(in_features=4096, out_features=14336, bias=False)\n","        (w2): Linear(in_features=14336, out_features=4096, bias=False)\n","        (w3): Linear(in_features=4096, out_features=14336, bias=False)\n","      )\n","    )\n","    (13): TransformerBlock(\n","      (attention): Attention(\n","        (wq): Linear(in_features=4096, out_features=4096, bias=False)\n","        (wk): Linear(in_features=4096, out_features=1024, bias=False)\n","        (wv): Linear(in_features=4096, out_features=1024, bias=False)\n","        (wo): Linear(in_features=4096, out_features=4096, bias=False)\n","      )\n","      (attention_norm): RMSNorm()\n","      (ffn_norm): RMSNorm()\n","      (feed_forward): FeedForward(\n","        (w1): Linear(in_features=4096, out_features=14336, bias=False)\n","        (w2): Linear(in_features=14336, out_features=4096, bias=False)\n","        (w3): Linear(in_features=4096, out_features=14336, bias=False)\n","      )\n","    )\n","    (14): TransformerBlock(\n","      (attention): Attention(\n","        (wq): Linear(in_features=4096, out_features=4096, bias=False)\n","        (wk): Linear(in_features=4096, out_features=1024, bias=False)\n","        (wv): Linear(in_features=4096, out_features=1024, bias=False)\n","        (wo): Linear(in_features=4096, out_features=4096, bias=False)\n","      )\n","      (attention_norm): RMSNorm()\n","      (ffn_norm): RMSNorm()\n","      (feed_forward): FeedForward(\n","        (w1): Linear(in_features=4096, out_features=14336, bias=False)\n","        (w2): Linear(in_features=14336, out_features=4096, bias=False)\n","        (w3): Linear(in_features=4096, out_features=14336, bias=False)\n","      )\n","    )\n","    (15): TransformerBlock(\n","      (attention): Attention(\n","        (wq): Linear(in_features=4096, out_features=4096, bias=False)\n","        (wk): Linear(in_features=4096, out_features=1024, bias=False)\n","        (wv): Linear(in_features=4096, out_features=1024, bias=False)\n","        (wo): Linear(in_features=4096, out_features=4096, bias=False)\n","      )\n","      (attention_norm): RMSNorm()\n","      (ffn_norm): RMSNorm()\n","      (feed_forward): FeedForward(\n","        (w1): Linear(in_features=4096, out_features=14336, bias=False)\n","        (w2): Linear(in_features=14336, out_features=4096, bias=False)\n","        (w3): Linear(in_features=4096, out_features=14336, bias=False)\n","      )\n","    )\n","    (16): TransformerBlock(\n","      (attention): Attention(\n","        (wq): Linear(in_features=4096, out_features=4096, bias=False)\n","        (wk): Linear(in_features=4096, out_features=1024, bias=False)\n","        (wv): Linear(in_features=4096, out_features=1024, bias=False)\n","        (wo): Linear(in_features=4096, out_features=4096, bias=False)\n","      )\n","      (attention_norm): RMSNorm()\n","      (ffn_norm): RMSNorm()\n","      (feed_forward): FeedForward(\n","        (w1): Linear(in_features=4096, out_features=14336, bias=False)\n","        (w2): Linear(in_features=14336, out_features=4096, bias=False)\n","        (w3): Linear(in_features=4096, out_features=14336, bias=False)\n","      )\n","    )\n","    (17): TransformerBlock(\n","      (attention): Attention(\n","        (wq): Linear(in_features=4096, out_features=4096, bias=False)\n","        (wk): Linear(in_features=4096, out_features=1024, bias=False)\n","        (wv): Linear(in_features=4096, out_features=1024, bias=False)\n","        (wo): Linear(in_features=4096, out_features=4096, bias=False)\n","      )\n","      (attention_norm): RMSNorm()\n","      (ffn_norm): RMSNorm()\n","      (feed_forward): FeedForward(\n","        (w1): Linear(in_features=4096, out_features=14336, bias=False)\n","        (w2): Linear(in_features=14336, out_features=4096, bias=False)\n","        (w3): Linear(in_features=4096, out_features=14336, bias=False)\n","      )\n","    )\n","    (18): TransformerBlock(\n","      (attention): Attention(\n","        (wq): Linear(in_features=4096, out_features=4096, bias=False)\n","        (wk): Linear(in_features=4096, out_features=1024, bias=False)\n","        (wv): Linear(in_features=4096, out_features=1024, bias=False)\n","        (wo): Linear(in_features=4096, out_features=4096, bias=False)\n","      )\n","      (attention_norm): RMSNorm()\n","      (ffn_norm): RMSNorm()\n","      (feed_forward): FeedForward(\n","        (w1): Linear(in_features=4096, out_features=14336, bias=False)\n","        (w2): Linear(in_features=14336, out_features=4096, bias=False)\n","        (w3): Linear(in_features=4096, out_features=14336, bias=False)\n","      )\n","    )\n","    (19): TransformerBlock(\n","      (attention): Attention(\n","        (wq): Linear(in_features=4096, out_features=4096, bias=False)\n","        (wk): Linear(in_features=4096, out_features=1024, bias=False)\n","        (wv): Linear(in_features=4096, out_features=1024, bias=False)\n","        (wo): Linear(in_features=4096, out_features=4096, bias=False)\n","      )\n","      (attention_norm): RMSNorm()\n","      (ffn_norm): RMSNorm()\n","      (feed_forward): FeedForward(\n","        (w1): Linear(in_features=4096, out_features=14336, bias=False)\n","        (w2): Linear(in_features=14336, out_features=4096, bias=False)\n","        (w3): Linear(in_features=4096, out_features=14336, bias=False)\n","      )\n","    )\n","    (20): TransformerBlock(\n","      (attention): Attention(\n","        (wq): Linear(in_features=4096, out_features=4096, bias=False)\n","        (wk): Linear(in_features=4096, out_features=1024, bias=False)\n","        (wv): Linear(in_features=4096, out_features=1024, bias=False)\n","        (wo): Linear(in_features=4096, out_features=4096, bias=False)\n","      )\n","      (attention_norm): RMSNorm()\n","      (ffn_norm): RMSNorm()\n","      (feed_forward): FeedForward(\n","        (w1): Linear(in_features=4096, out_features=14336, bias=False)\n","        (w2): Linear(in_features=14336, out_features=4096, bias=False)\n","        (w3): Linear(in_features=4096, out_features=14336, bias=False)\n","      )\n","    )\n","    (21): TransformerBlock(\n","      (attention): Attention(\n","        (wq): Linear(in_features=4096, out_features=4096, bias=False)\n","        (wk): Linear(in_features=4096, out_features=1024, bias=False)\n","        (wv): Linear(in_features=4096, out_features=1024, bias=False)\n","        (wo): Linear(in_features=4096, out_features=4096, bias=False)\n","      )\n","      (attention_norm): RMSNorm()\n","      (ffn_norm): RMSNorm()\n","      (feed_forward): FeedForward(\n","        (w1): Linear(in_features=4096, out_features=14336, bias=False)\n","        (w2): Linear(in_features=14336, out_features=4096, bias=False)\n","        (w3): Linear(in_features=4096, out_features=14336, bias=False)\n","      )\n","    )\n","    (22): TransformerBlock(\n","      (attention): Attention(\n","        (wq): Linear(in_features=4096, out_features=4096, bias=False)\n","        (wk): Linear(in_features=4096, out_features=1024, bias=False)\n","        (wv): Linear(in_features=4096, out_features=1024, bias=False)\n","        (wo): Linear(in_features=4096, out_features=4096, bias=False)\n","      )\n","      (attention_norm): RMSNorm()\n","      (ffn_norm): RMSNorm()\n","      (feed_forward): FeedForward(\n","        (w1): Linear(in_features=4096, out_features=14336, bias=False)\n","        (w2): Linear(in_features=14336, out_features=4096, bias=False)\n","        (w3): Linear(in_features=4096, out_features=14336, bias=False)\n","      )\n","    )\n","    (23): TransformerBlock(\n","      (attention): Attention(\n","        (wq): Linear(in_features=4096, out_features=4096, bias=False)\n","        (wk): Linear(in_features=4096, out_features=1024, bias=False)\n","        (wv): Linear(in_features=4096, out_features=1024, bias=False)\n","        (wo): Linear(in_features=4096, out_features=4096, bias=False)\n","      )\n","      (attention_norm): RMSNorm()\n","      (ffn_norm): RMSNorm()\n","      (feed_forward): FeedForward(\n","        (w1): Linear(in_features=4096, out_features=14336, bias=False)\n","        (w2): Linear(in_features=14336, out_features=4096, bias=False)\n","        (w3): Linear(in_features=4096, out_features=14336, bias=False)\n","      )\n","    )\n","    (24): TransformerBlock(\n","      (attention): Attention(\n","        (wq): Linear(in_features=4096, out_features=4096, bias=False)\n","        (wk): Linear(in_features=4096, out_features=1024, bias=False)\n","        (wv): Linear(in_features=4096, out_features=1024, bias=False)\n","        (wo): Linear(in_features=4096, out_features=4096, bias=False)\n","      )\n","      (attention_norm): RMSNorm()\n","      (ffn_norm): RMSNorm()\n","      (feed_forward): FeedForward(\n","        (w1): Linear(in_features=4096, out_features=14336, bias=False)\n","        (w2): Linear(in_features=14336, out_features=4096, bias=False)\n","        (w3): Linear(in_features=4096, out_features=14336, bias=False)\n","      )\n","    )\n","    (25): TransformerBlock(\n","      (attention): Attention(\n","        (wq): Linear(in_features=4096, out_features=4096, bias=False)\n","        (wk): Linear(in_features=4096, out_features=1024, bias=False)\n","        (wv): Linear(in_features=4096, out_features=1024, bias=False)\n","        (wo): Linear(in_features=4096, out_features=4096, bias=False)\n","      )\n","      (attention_norm): RMSNorm()\n","      (ffn_norm): RMSNorm()\n","      (feed_forward): FeedForward(\n","        (w1): Linear(in_features=4096, out_features=14336, bias=False)\n","        (w2): Linear(in_features=14336, out_features=4096, bias=False)\n","        (w3): Linear(in_features=4096, out_features=14336, bias=False)\n","      )\n","    )\n","    (26): TransformerBlock(\n","      (attention): Attention(\n","        (wq): Linear(in_features=4096, out_features=4096, bias=False)\n","        (wk): Linear(in_features=4096, out_features=1024, bias=False)\n","        (wv): Linear(in_features=4096, out_features=1024, bias=False)\n","        (wo): Linear(in_features=4096, out_features=4096, bias=False)\n","      )\n","      (attention_norm): RMSNorm()\n","      (ffn_norm): RMSNorm()\n","      (feed_forward): FeedForward(\n","        (w1): Linear(in_features=4096, out_features=14336, bias=False)\n","        (w2): Linear(in_features=14336, out_features=4096, bias=False)\n","        (w3): Linear(in_features=4096, out_features=14336, bias=False)\n","      )\n","    )\n","    (27): TransformerBlock(\n","      (attention): Attention(\n","        (wq): Linear(in_features=4096, out_features=4096, bias=False)\n","        (wk): Linear(in_features=4096, out_features=1024, bias=False)\n","        (wv): Linear(in_features=4096, out_features=1024, bias=False)\n","        (wo): Linear(in_features=4096, out_features=4096, bias=False)\n","      )\n","      (attention_norm): RMSNorm()\n","      (ffn_norm): RMSNorm()\n","      (feed_forward): FeedForward(\n","        (w1): Linear(in_features=4096, out_features=14336, bias=False)\n","        (w2): Linear(in_features=14336, out_features=4096, bias=False)\n","        (w3): Linear(in_features=4096, out_features=14336, bias=False)\n","      )\n","    )\n","    (28): TransformerBlock(\n","      (attention): Attention(\n","        (wq): Linear(in_features=4096, out_features=4096, bias=False)\n","        (wk): Linear(in_features=4096, out_features=1024, bias=False)\n","        (wv): Linear(in_features=4096, out_features=1024, bias=False)\n","        (wo): Linear(in_features=4096, out_features=4096, bias=False)\n","      )\n","      (attention_norm): RMSNorm()\n","      (ffn_norm): RMSNorm()\n","      (feed_forward): FeedForward(\n","        (w1): Linear(in_features=4096, out_features=14336, bias=False)\n","        (w2): Linear(in_features=14336, out_features=4096, bias=False)\n","        (w3): Linear(in_features=4096, out_features=14336, bias=False)\n","      )\n","    )\n","    (29): TransformerBlock(\n","      (attention): Attention(\n","        (wq): Linear(in_features=4096, out_features=4096, bias=False)\n","        (wk): Linear(in_features=4096, out_features=1024, bias=False)\n","        (wv): Linear(in_features=4096, out_features=1024, bias=False)\n","        (wo): Linear(in_features=4096, out_features=4096, bias=False)\n","      )\n","      (attention_norm): RMSNorm()\n","      (ffn_norm): RMSNorm()\n","      (feed_forward): FeedForward(\n","        (w1): Linear(in_features=4096, out_features=14336, bias=False)\n","        (w2): Linear(in_features=14336, out_features=4096, bias=False)\n","        (w3): Linear(in_features=4096, out_features=14336, bias=False)\n","      )\n","    )\n","    (30): TransformerBlock(\n","      (attention): Attention(\n","        (wq): Linear(in_features=4096, out_features=4096, bias=False)\n","        (wk): Linear(in_features=4096, out_features=1024, bias=False)\n","        (wv): Linear(in_features=4096, out_features=1024, bias=False)\n","        (wo): Linear(in_features=4096, out_features=4096, bias=False)\n","      )\n","      (attention_norm): RMSNorm()\n","      (ffn_norm): RMSNorm()\n","      (feed_forward): FeedForward(\n","        (w1): Linear(in_features=4096, out_features=14336, bias=False)\n","        (w2): Linear(in_features=14336, out_features=4096, bias=False)\n","        (w3): Linear(in_features=4096, out_features=14336, bias=False)\n","      )\n","    )\n","    (31): TransformerBlock(\n","      (attention): Attention(\n","        (wq): Linear(in_features=4096, out_features=4096, bias=False)\n","        (wk): Linear(in_features=4096, out_features=1024, bias=False)\n","        (wv): Linear(in_features=4096, out_features=1024, bias=False)\n","        (wo): Linear(in_features=4096, out_features=4096, bias=False)\n","      )\n","      (attention_norm): RMSNorm()\n","      (ffn_norm): RMSNorm()\n","      (feed_forward): FeedForward(\n","        (w1): Linear(in_features=4096, out_features=14336, bias=False)\n","        (w2): Linear(in_features=14336, out_features=4096, bias=False)\n","        (w3): Linear(in_features=4096, out_features=14336, bias=False)\n","      )\n","    )\n","  )\n",")\n"]},{"output_type":"execute_result","data":{"text/plain":["'\\nTransformer(\\n  (tok_embeddings): Embedding(32000, 4096)\\n  (norm): RMSNorm()\\n  (output): Linear(in_features=4096, out_features=32000, bias=False)\\n  (layers): ModuleDict(\\n    (0): TransformerBlock(\\n      (attention): Attention(\\n        (wq): Linear(in_features=4096, out_features=4096, bias=False)\\n        (wk): Linear(in_features=4096, out_features=1024, bias=False)\\n        (wv): Linear(in_features=4096, out_features=1024, bias=False)\\n        (wo): Linear(in_features=4096, out_features=4096, bias=False)\\n      )\\n      (attention_norm): RMSNorm()\\n      (ffn_norm): RMSNorm()\\n      (feed_forward): FeedForward(\\n        (w1): Linear(in_features=4096, out_features=14336, bias=False)\\n        (w2): Linear(in_features=14336, out_features=4096, bias=False)\\n        (w3): Linear(in_features=4096, out_features=14336, bias=False)\\n      )\\n    )\\n    (1): TransformerBlock(\\n      (attention): Attention(\\n        (wq): Linear(in_features=4096, out_features=4096, bias=False)\\n        (wk): Linear(in_features=4096, out_features=1024, bias=False)\\n        (wv): Linear(in_features=4096, out_features=1024, bias=False)\\n        (wo): Linear(in_features=4096, out_features=4096, bias=False)\\n      )\\n      (attention_norm): RMSNorm()\\n      (ffn_norm): RMSNorm()\\n      (feed_forward): FeedForward(\\n        (w1): Linear(in_features=4096, out_features=14336, bias=False)\\n        (w2): Linear(in_features=14336, out_features=4096, bias=False)\\n        (w3): Linear(in_features=4096, out_features=14336, bias=False)\\n      )\\n    )\\n\\n    # ..............TransformerBlock is repeated 31 times.......................\\n\\n\\n    (31): TransformerBlock(\\n      (attention): Attention(\\n        (wq): Linear(in_features=4096, out_features=4096, bias=False)\\n        (wk): Linear(in_features=4096, out_features=1024, bias=False)\\n        (wv): Linear(in_features=4096, out_features=1024, bias=False)\\n        (wo): Linear(in_features=4096, out_features=4096, bias=False)\\n      )\\n      (attention_norm): RMSNorm()\\n      (ffn_norm): RMSNorm()\\n      (feed_forward): FeedForward(\\n        (w1): Linear(in_features=4096, out_features=14336, bias=False)\\n        (w2): Linear(in_features=14336, out_features=4096, bias=False)\\n        (w3): Linear(in_features=4096, out_features=14336, bias=False)\\n      )\\n    )\\n  )\\n  '"],"application/vnd.google.colaboratory.intrinsic+json":{"type":"string"}},"metadata":{},"execution_count":11}],"source":["# according to the paper:\n","\"\"\"\n","dim 4096\n","n_layers 32\n","head_dim 128\n","hidden_dim 14336\n","n_heads 32\n","n_kv_heads 8\n","window_size 4096\n","context_len 8192\n","vocab_size 32000\n","\"\"\"\n","\n","print(model_manager.model)\n","\"\"\"\n","Transformer(\n","  (tok_embeddings): Embedding(32000, 4096)\n","  (norm): RMSNorm()\n","  (output): Linear(in_features=4096, out_features=32000, bias=False)\n","  (layers): ModuleDict(\n","    (0): TransformerBlock(\n","      (attention): Attention(\n","        (wq): Linear(in_features=4096, out_features=4096, bias=False)\n","        (wk): Linear(in_features=4096, out_features=1024, bias=False)\n","        (wv): Linear(in_features=4096, out_features=1024, bias=False)\n","        (wo): Linear(in_features=4096, out_features=4096, bias=False)\n","      )\n","      (attention_norm): RMSNorm()\n","      (ffn_norm): RMSNorm()\n","      (feed_forward): FeedForward(\n","        (w1): Linear(in_features=4096, out_features=14336, bias=False)\n","        (w2): Linear(in_features=14336, out_features=4096, bias=False)\n","        (w3): Linear(in_features=4096, out_features=14336, bias=False)\n","      )\n","    )\n","    (1): TransformerBlock(\n","      (attention): Attention(\n","        (wq): Linear(in_features=4096, out_features=4096, bias=False)\n","        (wk): Linear(in_features=4096, out_features=1024, bias=False)\n","        (wv): Linear(in_features=4096, out_features=1024, bias=False)\n","        (wo): Linear(in_features=4096, out_features=4096, bias=False)\n","      )\n","      (attention_norm): RMSNorm()\n","      (ffn_norm): RMSNorm()\n","      (feed_forward): FeedForward(\n","        (w1): Linear(in_features=4096, out_features=14336, bias=False)\n","        (w2): Linear(in_features=14336, out_features=4096, bias=False)\n","        (w3): Linear(in_features=4096, out_features=14336, bias=False)\n","      )\n","    )\n","\n","    # ..............TransformerBlock is repeated 31 times.......................\n","\n","\n","    (31): TransformerBlock(\n","      (attention): Attention(\n","        (wq): Linear(in_features=4096, out_features=4096, bias=False)\n","        (wk): Linear(in_features=4096, out_features=1024, bias=False)\n","        (wv): Linear(in_features=4096, out_features=1024, bias=False)\n","        (wo): Linear(in_features=4096, out_features=4096, bias=False)\n","      )\n","      (attention_norm): RMSNorm()\n","      (ffn_norm): RMSNorm()\n","      (feed_forward): FeedForward(\n","        (w1): Linear(in_features=4096, out_features=14336, bias=False)\n","        (w2): Linear(in_features=14336, out_features=4096, bias=False)\n","        (w3): Linear(in_features=4096, out_features=14336, bias=False)\n","      )\n","    )\n","  )\n","  \"\"\"\n"]},{"cell_type":"markdown","id":"mADuEzoLWror","metadata":{"id":"mADuEzoLWror"},"source":["## The Inspection Classes"]},{"cell_type":"code","execution_count":null,"id":"H1dn_epQOtg3","metadata":{"id":"H1dn_epQOtg3"},"outputs":[],"source":["import pandas as pd\n","import torch\n","import re\n","\n","from 
…
